train/b/b394e65b028b0e9.npy (npy, 838784 bytes, 1 tensors)

array f2 [6, 273, 256]
-0.737 -0.7666 -0.629 -0.5957 -0.3997 -0.6646 -0.733 -0.639
-0.7646 -0.604 -0.73 -0.388 -0.538 -0.6875 -0.538 -0.6733
-0.6064 -0.735 -0.6294 -0.553 -0.6797 -0.8306 -0.8413 -0.59
-0.601 -0.4517 -0.6816 -0.5522 -0.5073 -0.5312 -0.5854 -0.568
-0.7134 -0.4502 -0.708 -0.536 -0.4937 -0.5186 -0.4878 -0.815
-0.3618 -0.651 -0.534 -0.502 -0.5386 -0.3652 -0.5405 -0.675
-0.5054 -0.6006 -0.8677 -0.522 -0.7485 -0.6777 -0.568 -0.509
-0.3625 -0.4956 -0.744 -0.5776 -0.3281 -0.4954 -0.4111 -0.4329
-0.501 -0.2786 -0.4534 -0.3804 -0.5527 -0.573 -0.5337 -0.3943
-0.4287 -0.3433 -0.387 -0.2686 -0.501 -0.3909 -0.4346 -0.4807
-0.4324 -0.5566 -0.205 -0.287 -0.2898 -0.1256 -0.1766 -0.386
-0.2927 -0.4395 -0.232 -0.1708 -0.2742 -0.04083 -0.076 -0.013466
-0.127 -0.111 -0.2086 -0.2034 -0.301 -0.0398 -0.01502 -0.1301
0.057 -0.02496 -0.05597 -0.3718 -0.2915 -0.3162 -0.0313 -0.0816
0.05762 0.342 0.437 0.1611 0.1793 0.02525 0.2722 0.257
0.2847 0.7544 0.783 0.5522 0.7183 0.546 0.3528 0.2795
0.1879 0.00317 0.1815 0.4197 0.651 0.4785 0.1654 0.1664
0.1145 0.03653 0.1633 0.2617 0.3157 0.67 0.7515 0.795
0.915 0.6777 0.5913 0.6 0.4902 0.675 1.056 1.112
1.154 0.9946 1.096 0.7437 0.67 0.2568 0.3206 0.4834
0.7397 0.7437 0.6562 0.4585 0.271 -0.03702 0.05643 0.0995
-0.03418 0.0845 0.3345 0.2893 0.4656 0.3733 0.4897 0.3247
0.374 0.3127 0.5835 0.6465 0.5786 0.669 0.492 0.4707
0.05682 0.1812 0.1431 -0.1337 0.11005 0.06177 -0.03247 0.2107
-0.182 -0.1472 -0.2312 -0.4202 -0.431 -0.1881 -0.4285 -0.2383
-0.1454 13.805 -0.2593 -0.3928 -0.2197 -0.3162 -0.2067 -0.1896
-0.2695 -0.02504 -0.2177 -0.1631 -0.4487 -0.2852 -0.295 -0.2776
-0.3628 -0.2189 -0.3157 -0.2485 -0.1796 -0.3525 -0.2211 -0.738
-0.3652 -0.4944 -0.5576 -0.369 -0.5596 -0.4465 -0.3274 -0.4224
-0.486 -0.523 -0.3801 -0.5034 -0.5786 -0.6177 -0.383 -0.2264
-0.3838 -0.6577 -0.2937 -0.3472 -0.5425 -0.339 -0.4207 -0.5938
-0.712 -0.2822 -0.353 -0.5713 -0.6074 -0.4905 -0.647 -0.4888
00000000: e5b9 22ba 08b9 c4b8 65b6 51b9 ddb9 1db9
00000010: 1eba d5b8 d7b9 35b6 4eb8 80b9 4eb8 63b9
00000020: dab8 e1b9 09b9 6db8 70b9 a5ba bbba b8b8
00000030: cfb8 3ab7 74b9 6bb8 0fb8 40b8 afb8 8bb8
00000040: b5b9 34b7 aab9 4ab8 e6b7 26b8 ceb7 85ba
00000050: cab5 35b9 46b8 04b8 4fb8 d8b5 53b8 66b9
00000060: 0bb8 ceb8 f1ba 2db8 fdb9 6cb9 8bb8 12b8
00000070: cdb5 eeb7 f4b9 9fb8 40b5 edb7 94b6 edb6
00000080: 02b8 75b4 41b7 16b6 6cb8 96b8 45b8 4fb6
00000090: dcb6 7eb5 31b6 4cb4 02b8 41b6 f4b6 b1b7
000000a0: ebb6 74b8 8fb2 98b4 a3b4 05b0 a7b1 2db6
000000b0: afb4 08b7 6db3 77b1 63b4 3aa9 ddac e5a2
000000c0: 10b0 1baf adb2 82b2 d1b4 18a9 b1a3 2ab0
000000d0: 4c2b 64a6 2aab f3b5 aab4 0fb5 02a8 39ad
000000e0: 602b 7935 fe36 2831 bd31 7726 5b34 1d34
000000f0: 8e34 093a 443a 6b38 bf39 5e38 a535 7934
00000100: 0332 7e1a cf31 b736 3539 a837 4b31 5331
00000110: 542f ad28 3a31 3034 0d35 5c39 033a 5c3a
00000120: 523b 6c39 bb38 cd38 d837 6639 393c 733c
00000130: 9e3c f53b 623c f339 5c39 1c34 2135 bc37
00000140: eb39 f339 4039 5637 5634 bda8 392b 5e2e
00000150: 60a8 682d 5a35 a134 7337 f935 d637 3235
00000160: fc35 0135 ab38 2c39 a138 5a39 df37 8837
00000170: 462b cc31 9430 47b0 0b2f e82b 28a8 be32
00000180: d3b1 b6b0 66b3 b9b6 e5b6 05b2 dbb6 a0b3
00000190: a7b0 e74a 26b4 49b6 08b3 0fb5 9db2 11b2
000001a0: 50b4 69a6 f7b2 38b1 2eb7 90b4 b8b4 71b4
000001b0: ceb5 01b3 0db5 f4b3 bfb1 a4b5 13b3 e7b9
000001c0: d8b5 e9b7 76b8 e7b5 7ab8 25b7 3db5 c2b6
000001d0: c7b7 2fb8 15b6 07b8 a1b8 f1b8 21b6 3fb3
000001e0: 24b6 43b9 b3b4 8eb5 57b8 6db5 bbb6 c0b8
000001f0: b2b9 84b4 a6b5 92b8 dcb8 d9b7 2db9 d2b7
