train/b/b7ee80796cf2653.npy (npy, 838784 bytes, 1 tensors)

array f2 [6, 273, 256]
00000000: 56aa 37ae deb8 e0a7 f8ac 41b3 5b2b 5fb4
00000010: 05af ba2e 0fb3 a1b0 d8b6 acb4 a2ac c9b4
00000020: c8ad 99ad 082c 1532 09b0 17b4 69b4 98b5
00000030: f52b 5eb0 b597 5bb5 77ac 04af f8a8 17ad
00000040: 8bae 7ead 9d2b dfb2 47b3 9db4 75b5 29ab
00000050: fc23 7eb3 9ab3 5bac 7bb1 eaad a020 dfaa
00000060: 28ab 77b0 cbad c79f 67b4 cc2e d7a5 fe32
00000070: bbaf 9435 1cb6 fa30 f531 e7ad 04ac 1bb0
00000080: f9ad 64b1 d234 e12c 13b4 0921 2c24 50b1
00000090: c42e 99b3 b830 e4a8 a3a9 33b4 fe29 6833
000000a0: f031 0e33 95ab 1c30 4b2f ebae c42e ba2e
000000b0: eab1 1f2c 8031 582c fe2d f32f f431 00b0
000000c0: 0c25 15a3 319e 56b3 b130 cfb2 19b0 3035
000000d0: 9633 c12a a5af 29ad 60ad c1b1 51b0 7c2e
000000e0: eeb3 b9b7 972e a32c b62d 7f24 a6ac 9325
000000f0: 23af 0c30 82b0 00b4 83b2 5fae 72b2 782d
00000100: afb0 241e b4b4 edb4 80b1 99b4 aab3 7fad
00000110: 76aa aea8 21b4 3ab1 68ae ffb5 51b1 ebb1
00000120: 3bb5 8bad 97af b9b4 07b2 1d31 681c 89af
00000130: efb3 38b4 31ae 47b2 5429 33ac 55b0 9fb3
00000140: 77b4 10ad af26 d94b 4fb5 23b4 30b3 49b7
00000150: 4631 d8ad 56b0 1cb7 8b34 8ca5 b2b1 d9a8
00000160: d7af 04ae 7cac 5e34 5829 47b8 a22b ccad
00000170: e2b3 28b5 3ea7 b7b0 67b6 19b1 b9b4 e0b0
00000180: a1ac f0b0 9ab1 e3a3 9430 f62c 23b5 b58b
00000190: 56b0 a9aa 13b4 4eaf c7b4 4caf f1a7 48b0
000001a0: 8a23 e5ad 58af e5a5 1cad 2132 3ab3 28b1
000001b0: 50b0 83b1 5731 b9b2 ebac e9b4 21ae ceab
000001c0: 7d2d 7bb0 5035 4aa8 7b2f 04b1 d7b0 a92c
000001d0: c822 9cb3 38b0 872c 492e de2d 2eaf 9531
000001e0: 07a8 9b32 52b2 25b3 5fb1 4730 f728 a0af
000001f0: a831 7135 4db4 6230 c2b0 7faa 9b2c 9634
-0.0495 -0.0971 -0.6084 -0.03076 -0.07764 -0.2267 0.05746 -0.2732
-0.1097 0.1051 -0.2206 -0.1447 -0.4277 -0.292 -0.0724 -0.299
-0.09033 -0.08746 0.063 0.1901 -0.1261 -0.2556 -0.2756 -0.3496
0.06216 -0.1365 -0.001882 -0.3347 -0.06976 -0.1096 -0.03882 -0.0795
-0.10223 -0.0858 0.05948 -0.2147 -0.2274 -0.2883 -0.341 -0.05594
0.015594 -0.2341 -0.2375 -0.06805 -0.1713 -0.0924 0.00903 -0.05368
-0.0559 -0.1395 -0.0905 -0.007595 -0.2751 0.1062 -0.02281 0.2185
-0.1208 0.3486 -0.3818 0.1555 0.1862 -0.0922 -0.06274 -0.1283
-0.0933 -0.1685 0.3013 0.07623 -0.2546 0.009834 0.0163 -0.166
0.1057 -0.2374 0.1475 -0.0382 -0.04404 -0.2625 0.0468 0.2314
0.1855 0.2205 -0.05923 0.1284 0.11395 -0.1081 0.1057 0.1051
-0.1848 0.0644 0.1719 0.0679 0.0936 0.1242 0.186 -0.125
0.01971 -0.01383 -0.006046 -0.2292 0.1466 -0.2128 -0.128 0.3242
0.237 0.05276 -0.11945 -0.0806 -0.084 -0.1798 -0.1349 0.1013
-0.2478 -0.4827 0.10297 0.07245 0.08923 0.01756 -0.07263 0.02177
-0.1115 0.1265 -0.1409 -0.25 -0.2035 -0.09955 -0.2014 0.08545
-0.1464 0.005997 -0.294 -0.3079 -0.1719 -0.2874 -0.2395 -0.0859
-0.05048 -0.03656 -0.258 -0.1633 -0.1001 -0.3748 -0.1661 -0.1849
-0.327 -0.0866 -0.1186 -0.2952 -0.1884 0.1598 0.004303 -0.11774
-0.2479 -0.2637 -0.09674 -0.1962 0.04163 -0.0656 -0.1354 -0.2382
-0.279 -0.0791 0.02611 15.695 -0.3318 -0.2585 -0.2246 -0.4553
0.1648 -0.0913 -0.1355 -0.4443 0.284 -0.02167 -0.178 -0.03787
-0.1225 -0.094 -0.07007 0.273 0.04175 -0.5347 0.05963 -0.0906
-0.2463 -0.3223 -0.02829 -0.1473 -0.4001 -0.1593 -0.2952 -0.1523
-0.0723 -0.1543 -0.175 -0.0154 0.1431 0.0775 -0.321 -0.0002352
-0.1355 -0.05203 -0.2546 -0.11414 -0.2986 -0.114 -0.03102 -0.1338
0.014725 -0.0921 -0.11475 -0.02303 -0.07983 0.1915 -0.2258 -0.1611
-0.1348 -0.1722 0.1669 -0.2101 -0.07684 -0.307 -0.09576 -0.06097
0.08575 -0.14 0.332 -0.0335 0.1169 -0.1567 -0.1512 0.0728
0.013245 -0.2378 -0.1318 0.07074 0.0982 0.0917 -0.1122 0.1744
-0.03146 0.2064 -0.1975 -0.2233 -0.1678 0.1337 0.0388 -0.11914
0.1768 0.34 -0.2688 0.137 -0.1487 -0.05075 0.07196 0.2866
