train/b/b9bfe70c01352cc.npy (npy, 838784 bytes, 1 tensors)

array f2 [6, 273, 256]
000000 c0 36 32 bb f1 bc 5c b8 ee bc f5 ba af b8 e6 b4
       0.4219 -0.8994 -1.235 -0.545 -1.232 -0.8696 -0.5854 -0.3062
000010 53 b7 25 b5 2b b8 31 b9 08 bc 7f b5 1b b7 16 bb
       -0.4578 -0.3215 -0.521 -0.649 -1.008 -0.3435 -0.444 -0.8857
000020 74 bd 42 b9 08 bb b1 b9 34 36 2a ba 5d b9 6a b7
       -1.363 -0.657 -0.879 -0.7114 0.3877 -0.7705 -0.6704 -0.4634
000030 b1 b9 a8 35 03 be 94 b6 33 bc 10 b2 f5 bc bf bc
       -0.7114 0.3535 -1.503 -0.4111 -1.05 -0.1895 -1.239 -1.187
000040 da b5 e2 ba 46 b6 10 b8 6d bc b7 ba f5 b7 f4 2e
       -0.3657 -0.8604 -0.392 -0.508 -1.106 -0.8394 -0.4973 0.10864
000050 da 2c b9 b8 c1 35 3f be bf b5 3f 34 40 3c e7 ac
       0.0758 -0.5903 0.3596 -1.562 -0.3591 0.2654 1.0625 -0.0766
000060 0b b5 70 b4 ff bc ed bc 9e b9 06 34 52 b1 83 be
       -0.3152 -0.2773 -1.249 -1.231 -0.702 0.2515 -0.1663 -1.628
000070 7e 35 d4 bd 40 34 2e 39 53 32 71 b7 eb 26 fd b9
       0.3433 -1.457 0.2656 0.6475 0.1976 -0.465 0.02702 -0.7485
000080 d6 ab cd b1 8b b3 6f ae 03 b1 89 3a 10 b5 13 38
       -0.06122 -0.1813 -0.2357 -0.1005 -0.1566 0.817 -0.3164 0.5093
000090 5f b5 aa bc 1d bd d8 b5 ca b0 e2 35 11 bc 26 2e
       -0.3357 -1.166 -1.278 -0.3652 -0.1497 0.3677 -1.017 0.09607
0000a0 38 bb 32 b8 3a bc 61 b9 21 b5 fb b8 12 33 1a ba
       -0.9023 -0.5244 -1.057 -0.6724 -0.3206 -0.6226 0.221 -0.7627
0000b0 3e b4 93 b5 03 37 fa 33 26 ac 9c b6 f4 38 38 bd
       -0.2651 -0.3484 0.4382 0.2493 -0.0648 -0.413 0.619 -1.305
0000c0 60 ae fb a2 8c b2 df ac 16 bc 15 bb 8e b7 7b b6
       -0.0996 -0.01363 -0.2046 -0.0761 -1.021 -0.8853 -0.4722 -0.405
0000d0 8b b4 77 38 1d 2e 70 a8 68 b3 7d 28 bd 30 e8 38
       -0.284 0.558 0.0955 -0.03467 -0.2314 0.03506 0.1481 0.6133
0000e0 10 34 2a 89 fa 32 7f 34 bb b3 86 b8 f7 b9 06 b4
       0.254 -0.0001576 0.218 0.281 -0.2416 -0.5654 -0.7456 -0.2515
0000f0 8e b6 c9 32 00 36 4d 2b 00 31 77 b4 a3 b1 80 b5
       -0.4097 0.212 0.375 0.05704 0.1562 -0.279 -0.1761 -0.3438
000100 ed b7 8d b7 53 b8 ce ba 49 a5 b7 b5 35 38 d7 be
       -0.4954 -0.472 -0.5405 -0.8506 -0.02065 -0.3572 0.526 -1.71
000110 0d 2b 62 b4 a7 36 8d b2 c8 b2 0f a7 3c 37 11 ba
       0.05508 -0.274 0.4158 -0.2047 -0.2119 -0.02757 0.4521 -0.7583
000120 ae b4 96 9b 15 32 0c 3c 3b 2d 93 b3 16 ba 85 2c
       -0.2925 -0.003704 0.1901 1.012 0.0817 -0.2367 -0.7607 0.0706
000130 9f b5 81 b9 99 ad e3 37 81 3c 04 bb 4c 24 72 b1
       -0.3513 -0.688 -0.08746 0.493 1.126 -0.877 0.01678 -0.1702
000140 08 35 fe 28 12 33 61 b4 4f bc 64 32 f5 b3 d7 b4
       0.3145 0.039 0.221 -0.2737 -1.077 0.1997 -0.2487 -0.3025
000150 cd b2 7c b3 0d 38 77 35 c4 b4 d2 a4 c7 1e 03 31
       -0.2125 -0.2339 0.5063 0.3416 -0.2979 -0.01883 0.00662 0.1566
000160 39 b0 3b b3 f5 ba 35 3a b5 35 3f 29 b7 b9 7d 3a
       -0.132 -0.226 -0.8696 0.776 0.3567 0.041 -0.7144 0.811
000170 37 b3 eb be 61 2f 68 21 46 b9 6c 38 1d b2 0c 36
       -0.2255 -1.7295 0.1153 0.01056 -0.659 0.5527 -0.191 0.378
000180 a7 b6 9d 2c e6 30 94 38 d3 b5 45 b8 dd 34 9d b1
       -0.4158 0.0721 0.1531 0.5723 -0.364 -0.5337 0.304 -0.1754
000190 37 bc 99 36 af b1 ac 33 2c bb 8e 36 49 b4 c1 b9
       -1.054 0.4124 -0.1776 0.2397 -0.8965 0.4097 -0.2678 -0.719
0001a0 25 38 0b bc 33 32 a8 32 90 38 8d 36 fd 33 f0 22
       0.518 -1.011 0.1937 0.208 0.5703 0.4094 0.2496 0.01355
0001b0 c0 28 6d 32 c9 af df 38 74 ae 43 bc 04 30 fc b8
       0.0371 0.2008 -0.12164 0.609 -0.1008 -1.065 0.1255 -0.623
0001c0 c5 b8 66 b5 f6 b6 a5 ba fa b7 6d bc b6 bc 87 ba
       -0.596 -0.3374 -0.435 -0.8306 -0.4985 -1.106 -1.178 -0.816
0001d0 26 b8 71 ba 95 bd 5a bc 9e ba 35 ba d7 36 ac b3
       -0.5186 -0.805 -1.3955 -1.088 -0.827 -0.776 0.4275 -0.2397
0001e0 ae b5 60 bc fc b8 95 bf 5a c0 c8 ba a0 b7 a2 b6
       -0.355 -1.094 -0.623 -1.8955 -2.176 -0.8477 -0.4766 -0.4146
0001f0 82 c1 2c bd 77 c0 91 c0 9d c0 a0 c0 f6 bf df c2
       -2.754 -1.293 -2.232 -2.283 -2.307 -2.312 -1.99 -3.436
